4_CPU/model_1.pth (torch, 794040 bytes, 10 tensors)

features.0.weight f4 [3, 3, 3, 3]
000000 7c be 48 bd 53 6c 52 3d a8 1a 2e 3e 42 cf 2e 3e
       -0.049009785 0.051372837 0.17002356 0.1707125
000010 5c d7 fb 3d 09 3e 41 be 77 15 b1 3d 42 62 eb bd
       0.12296936 -0.18871321 0.08646672 -0.114933506
000020 ec 83 35 be 66 8f 34 3e 9e 9a 00 3e f4 ef b9 3d
       -0.17726105 0.17632827 0.12558982 0.090789706
000030 c1 ab 05 3e 39 55 af bc cf 77 78 bd 70 2c 2f 3c
       0.130538 -0.021402942 -0.060661133 0.010691747
000040 a2 3d e1 39 46 76 2e 3e 7d 6c 4b be f9 45 65 be
       0.00042961264 0.17037305 -0.19865604 -0.22389974
000050 d3 30 57 3e 41 74 37 3e 69 ee 26 3e 94 79 6e be
       0.21014719 0.17915441 0.16301884 -0.23288566
000060 f9 be 2f be f1 38 e3 bc 6e 63 f9 bd 69 3a 27 be
       -0.17162694 -0.027737113 -0.12177168 -0.16330875
000070 a1 cf 54 3e 80 33 27 bc 72 42 1d 3e 48 80 18 be
       0.20782329 -0.01020515 0.15357378 -0.14892685
000080 3d c4 d7 bd 3c 63 f8 3c 3a 36 3d 3e aa d5 13 3d
       -0.10535476 0.030320756 0.18477717 0.036092438
000090 56 c0 e1 bd cc 45 47 3e 87 1b b0 bd 89 70 b8 bd
       -0.11023013 0.19460219 -0.085990004 -0.090058394
0000a0 cd 3b e1 bb cf b3 5c 3d ac 02 42 3e 65 e9 55 3e
       -0.006873584 0.053882416 0.18946332 0.20889814
0000b0 42 82 38 be b9 c2 33 bd ce 3d d9 3c 0a e2 3f be
       -0.1801844 -0.043886874 0.026518729 -0.18738571
0000c0 b9 0b dc 3d 57 d5 85 bc 76 a9 c9 bd 37 5a c2 3d
       0.107444234 -0.01633708 -0.09846775 0.09489863
0000d0 dd 00 dc 3c 52 e9 b3 bd 1b 1d 90 be 42 e6 86 be
       0.02685588 -0.08784737 -0.28147206 -0.26347548
0000e0 5b c1 a2 be 76 33 f3 bd 5c bd 49 be fa 28 40 bd
       -0.31788144 -0.1187505 -0.19701141 -0.04691408
0000f0 c1 e1 3c be 79 6a f6 bc 05 1f ca bd 1d d8 97 3d
       -0.18445493 -0.030080067 -0.09869198 0.07414267
000100 85 e7 d2 3c 71 b3 40 3d e3 89 37 3d cf 94 c3 3d
       0.025745163 0.04704613 0.044809233 0.09549867
000110 2c d5 7c bd 32 6a 82 3e 88 5c 23 3e 9f ee 57 3e
       -0.061726734 0.25471646 0.15953267 0.2108712
000120 45 35 35 3e d6 40 a5 bc 92 5f 51 3e 47 88 3d 3e
       0.17696102 -0.020172518 0.20446613 0.18509017
000130 fa a2 b3 bd c2 4d b9 bd 4f c6 7c 3e b8 1e a8 bc
       -0.0877132 -0.09048034 0.24685024 -0.02052246
000140 bb ea bc bb
       -0.0057652867

features.0.bias f4 [3]
000000 d5 6f 0f be 65 61 1d 3e df 40 48 3e
       -0.14007504 0.15369184 0.19555996

features.3.weight f4 [6, 3, 3, 3]
000000 e4 50 b5 bd 29 43 6d bd 15 50 84 bc 98 aa 0f 3c
       -0.08853319 -0.057925377 -0.016151467 0.0087687
000010 eb c6 10 3c d0 f0 76 bd 26 e4 69 bd d0 f0 bf bd
       0.008836488 -0.06028825 -0.057102345 -0.09372103
000020 67 21 a5 bd ce f2 d0 3d 1c f0 3e be ac bc 89 3d
       -0.080630116 0.10202561 -0.18646282 0.067254394
000030 50 39 88 bd 1a 20 f3 bd ab c6 01 be 41 37 b7 3d
       -0.066515565 -0.11871357 -0.12673442 0.08946086
000040 a9 65 a0 3d f1 53 c4 bc 1d 03 0e bd 11 aa 11 be
       0.0783189 -0.023965808 -0.034670938 -0.14225031
000050 e1 7b 16 3e c0 43 01 39 85 5c 71 bd 96 8a e5 bd
       0.14695694 0.00012327638 -0.058926124 -0.11208074
000060 32 86 cc bd 14 2b 51 bd b5 1d fc 3c 5c 28 d6 3d
       -0.09986533 -0.051066473 0.030775884 0.10456917
000070 5a 91 29 be 08 32 37 be 76 1b 2c 3e e7 6e 0e 3e
       -0.16559353 -0.17890179 0.1680735 0.13909493
000080 7f 3c f8 3c 34 82 87 3d 9c 0f 39 3e 32 16 04 3e
       0.030302284 0.06616631 0.18072361 0.12899092
000090 b5 c2 2c 3d f2 f7 7e 3c 9d 3f f1 bd bd 17 0c 3d
       0.042177875 0.015562044 -0.117797114 0.034202326
0000a0 df 4e 75 3b 96 9d 3e bd e1 d1 9b 3d e2 13 68 3e
       0.0037431044 -0.046537004 0.076083906 0.22663835
0000b0 73 dc e9 bc 8f 5f 38 bd aa ac 43 be 32 4c cf bd
       -0.028547501 -0.045013007 -0.19108835 -0.10121955
0000c0 af e5 4e be b3 f9 37 bd a7 65 cf 3d d7 97 34 be
       -0.20204805 -0.044915866 0.101268105 -0.17636047
0000d0 cc 6f c5 3d 57 fa 6d be 79 ec 33 3e 2c 49 e5 3d
       0.09640464 -0.23240028 0.17570676 0.11195597
0000e0 56 46 53 3e b1 e4 4c 3e f8 ea ef 3d d0 e7 fc 3d
       0.206323 0.20009114 0.117147386 0.12348902
0000f0 67 85 59 3e 06 a6 df 3d a9 cd 43 3e d2 bb bf bd
       0.21242295 0.10920338 0.19121422 -0.09361996
000100 c4 e3 16 3d b1 84 38 3e 6f 07 ae 3d 66 cd 91 bd
       0.036838308 0.18019368 0.084975116 -0.07119255
000110 7e 43 0d 3d a0 86 29 3d d2 40 40 bd 56 87 94 bc
       0.034488194 0.041388154 -0.046936817 -0.01813094
000120 92 c4 a5 bc 4d b6 20 3d 0e c3 15 3e 7e 35 2a 3e
       -0.020235334 0.039236356 0.14625189 0.16621968
000130 aa 58 d9 3d b5 be 21 3e b1 92 d4 3d 52 40 87 3d
       0.106126145 0.15795405 0.10379542 0.06604065
000140 fe 95 75 bd cd df 34 3e ee 59 a9 bd e2 93 c6 bd
       -0.059957497 0.17663498 -0.08269106 -0.09696175
000150 1e 8e 44 3e e7 48 1b 3e f4 d8 02 3e 68 05 aa bc
       0.19194838 0.15164529 0.12778074 -0.020754531
000160 40 da 3a 3d 77 eb 1b be 17 5d bf bd 7a 2c ff 3d
       0.045618296 -0.15226541 -0.09343927 0.12459655
000170 b0 c3 42 3d 4c 1a 27 be 11 60 e9 3c a8 b2 c8 bc
       0.047549903 -0.16318625 0.02848819 -0.024499252
000180 21 8b 1b 3d 3b a2 51 3e 74 08 85 3d 06 f5 12 3d
       0.03797448 0.20472042 0.06495753 0.035878204
000190 04 98 0a 39 58 d2 bf 3b b6 51 62 be 8f 47 c9 bd
       0.00013217336 0.0058539324 -0.22101483 -0.09828102
0001a0 34 38 8b 3d cc 16 16 bc c2 7a a6 3d 9e da c0 bd
       0.06797829 -0.009160709 0.08128883 -0.09416698
0001b0 28 90 64 3d 75 61 34 3e 55 35 b7 ba ed de 26 be
       0.05580154 0.17615302 -0.0013977686 -0.16295977
0001c0 dd b3 52 bd 8e 24 6b bd 6e ff ef bc 16 32 62 be
       -0.051441062 -0.05740791 -0.029296603 -0.22089419
0001d0 e0 cd 43 be 14 01 27 be 11 2a 91 bc a8 f2 84 be
       -0.19121504 -0.16309005 -0.017720254 -0.25966382
0001e0 ce 90 25 be 4f d0 9c 3b bb f7 01 be ab fa 0c 3e
       -0.1616852 0.0047855745 -0.12692158 0.13767497
0001f0 aa d4 51 bd 7c 22 6b bb 16 6d c3 3d fc 95 fa bd
       -0.051228203 -0.0035878709 0.09542291 -0.122356385
000200 b5 ee 1c 3e 32 ac 81 3e 2d 85 3c 3e cb c7 3a 3c
       0.15325435 0.25326687 0.18410178 0.011400173
000210 c5 48 09 3e da 79 df 3d 56 c7 5a 3e 89 50 84 bb
       0.13406666 0.10911913 0.21365103 -0.004037921
000220 8c 02 38 3d d2 45 3f 3d 14 d9 9b 3a 26 f1 55 3e
       0.044924304 0.046697445 0.0011890256 0.20892772
000230 d7 8d 06 3e 53 f7 1d 3d 2d 05 55 be c3 b9 0f bd
       0.13140045 0.038565945 -0.20802756 -0.035089266
000240 9a ec d9 3d 07 fe 36 bd 4f b8 1d bc 3b 9b e5 b8
       0.10640831 -0.044675853 -0.009626462 -0.00010948485
000250 13 b2 1f bc b0 46 cc bc 59 4b e2 bd 41 bb 3e bd
       -0.009747046 -0.02493605 -0.11049528 -0.046565298
000260 93 ca 10 be b2 b8 3a bd 3f d5 41 be 0c 83 f2 3d
       -0.14139776 -0.045586295 -0.18929003 0.118414015
000270 dc ff bf bd 99 da 28 3e 7c 67 37 be cc b9 3b 3e
       -0.09374973 0.16489638 -0.1791057 0.18332595
000280 d0 5b a7 3d a1 23 b6 3c
       0.08171809 0.022233786

features.3.bias f4 [6]
000000 d0 2e 23 be cc 77 ad b9 72 05 3f be dc 40 83 3c
       -0.15935826 -0.00033086387 -0.18654421 0.016022138
000010 37 cc a4 3c 2c 6c 8a bd
       0.020116908 -0.067589134

features.6.weight f4 [12, 6, 3, 3]
000000 23 52 0c be 19 9d 8a 3d a4 4c c2 3d 54 ff 9f bd
       -0.13703208 0.06768245 0.09487274 -0.07812372
000010 e4 d4 df bd 59 8d 85 bc ba 7d b7 bc f4 a8 f8 3d
       -0.109292775 -0.016302751 -0.022398818 0.121416
000020 4f 63 13 bd 94 d3 5d bc 9f 78 f6 3c d3 19 2e 3d
       -0.03598338 -0.013539214 0.030086813 0.042505097
000030 4f c6 bf 3d 73 4f 28 3e 6f fa 69 3e 2a 85 5e 3e
       0.09363996 0.16436557 0.22849439 0.21730486
000040 dc 82 4c 3e 54 d3 0e 3e 41 b1 14 bc 44 83 36 3d
       0.19971794 0.13947803 -0.009075464 0.04455878
000050 c8 24 bc bd 35 38 0f be 52 85 cb bd 70 d9 02 be
       -0.09186703 -0.13986285 -0.09937538 -0.12778258
000060 02 b6 7d 3d 92 e7 50 bc 0c ac 0c bd bb b9 14 3e
       0.061941154 -0.012750523 -0.034343764 0.14523976
000070 6c cd 54 3d 45 4d ca 3d 07 17 28 3e 0d cd 02 3d
       0.051953718 0.09878019 0.16415034 0.031933833
000080 c1 6c 45 bd 6e 6e f6 3d ed f7 01 3e 76 69 8d 3c
       -0.04819942 0.120327815 0.12692232 0.017262202
000090 ad db 07 be f0 95 38 be 6e 85 b1 bd fc f5 23 3d
       -0.13267393 -0.18025947 -0.08668028 0.04002951
0000a0 06 ba e3 bb 4d ae b5 bd d0 c8 98 3b 81 b1 13 3d
       -0.006949666 -0.08871136 0.0046626106 0.036057953
0000b0 a0 46 5d bd 3d 29 bb bd 32 d1 72 3c ac 66 5b be
       -0.05402243 -0.09138725 0.014820384 -0.21425885
0000c0 78 af 4a 3d fa 98 eb bc 20 8d b3 bd 6c 48 3d bd
       0.049483746 -0.028759468 -0.08767152 -0.046211645
0000d0 dd 0a 94 3c eb 12 87 3d 27 db cb bd 1d 79 89 bd
       0.018071586 0.06595405 -0.09953909 -0.06712554
0000e0 3d a5 06 be 78 85 cd bb 4a d1 6f 3c cd c8 b2 3d
       -0.13148971 -0.006272014 0.014637301 0.08729706
0000f0 5d 20 ff 3d 99 0b c4 bd c3 c1 da 3d 7f 31 bd 3d
       0.12457345 -0.095725246 0.10681488 0.09237956
000100 eb 4c 97 3e 8e 2b 3d 3d cc 25 ad 3d a3 f0 88 3e
       0.2955087 0.046184115 0.08454475 0.2674609
000110 d9 dd 91 3e 74 45 7f 3e 09 5d 88 3e 4d f4 96 3d
       0.2848957 0.24928838 0.2663348 0.073708154
000120 b1 87 dd bd dc 86 f9 3c 76 0a 14 be 54 fa 27 bd
       -0.10816897 0.030459814 -0.14457116 -0.041010216
000130 f5 c1 1a 3d 0b 4c 0b be ef f6 42 3d bc c0 a2 bd
       0.037782628 -0.13603227 0.047598775 -0.079469174
000140 25 2a 54 bd 3b dd 78 3b a7 b0 24 3e 07 7e 22 3e
       -0.051798005 0.003797366 0.16083013 0.15868388
000150 34 8a 9d 3d 43 8d e6 3c c3 2f df bc 0f 99 44 3e
       0.07692376 0.02814353 -0.027244454 0.19199012
000160 15 55 9f 3d 29 7a 09 3e 0d 1e 15 3d a2 d3 1a 3d
       0.077799 0.13425507 0.03640561 0.037799485
000170 9a a3 ce bd 53 5e ab bd a2 ef 38 be 04 dd e2 bd
       -0.10089798 -0.083676 -0.18060163 -0.11077312
000180 86 d2 04 3e ad 23 ac bd 7d 17 ff 3d b6 67 09 3d
       0.12970933 -0.08405242 0.12455652 0.033546172
000190 cb 2b 6a bd 49 eb ab 3c fd 5b 72 bd b7 c1 38 bc
       -0.05717067 0.020986216 -0.059169758 -0.011276654
0001a0 a8 88 e7 bd 43 30 7f 3d 4c 05 83 bd 67 bf fe bd
       -0.11305362 0.062301885 -0.06397495 -0.12438851
0001b0 3e 6f dc bc eb 31 ab bd 72 57 f0 3d 9e 71 00 3e
       -0.026908513 -0.083591305 0.11735429 0.12543342
0001c0 31 4f c1 bc 38 d0 58 bd 14 ea 5f 3c b0 d0 4b 3d
       -0.023597332 -0.052932948 0.013666648 0.049759567
0001d0 06 ae 2b bd 5e 94 57 be c4 81 8a be 36 33 15 be
       -0.04191401 -0.21052691 -0.27052128 -0.14570317
0001e0 3f 59 1b bc 56 ec cd bc a8 91 9d bd cb 5f 12 be
       -0.009481727 -0.025137108 -0.07693797 -0.14294355
0001f0 92 b3 07 bd 6f 38 8e be 0e ac 4c bd 55 b0 84 bd
       -0.033130236 -0.2777743 -0.04996877 -0.06478945
000200 d6 56 13 3d b9 7d 0a bd a2 03 c3 bd ec c2 4f 3d
       0.035971485 -0.033811305 -0.09522177 0.050723
000210 71 5e b0 3d 72 ad 01 be 96 8d 97 3c 8f ae 9b 3c
       0.08611763 -0.1266382 0.01850013 0.019004134
000220 53 06 1e be e8 a2 24 3c 83 22 85 3d 2d 4b bb bd
       -0.154321 0.0100486055 0.06500723 -0.09145198
000230 13 5a bb 3c a9 2d d0 bd 6b df 4f 3c fc e7 db bd
       0.0228701 -0.10164959 0.012687544 -0.10737607
000240 59 8a be 3d ef ac ce 3c 22 6f 06 be cd 58 c0 bc
       0.093037315 0.025228946 -0.13128331 -0.023479844
000250 8d 5a e8 3d 5c 98 03 3d c3 d3 82 bd 67 ab 62 3d
       0.11345396 0.032127723 -0.063880466 0.055339243
000260 85 ca 17 3c 24 ee 92 3c 91 26 17 bd 90 88 2f bd
       0.009264593 0.01793582 -0.036902014 -0.042854846
000270 ab 44 27 3d bf e2 e9 3a 48 94 f2 bc 29 81 06 be
       0.04083697 0.0017844065 -0.029611722 -0.13135208
000280 2e 80 d9 bd 4c 0e ed 3d 3b b8 f0 bc 56 89 05 3e
       -0.106201515 0.115749925 -0.029384723 0.13040671
000290 fe bc c8 3d 10 52 20 3e 8a c8 c1 3d 70 49 da bd
       0.098016724 0.15656304 0.09462078 -0.10658538
0002a0 33 03 94 bd a8 e6 01 3d 4d d5 eb 3d 7c df 52 bd
       -0.07227173 0.03171411 0.11515293 -0.051482663
0002b0 48 d5 45 3d 28 7d d0 bd 6f 43 e8 bd b3 11 a4 bc
       0.048299104 -0.10180122 -0.11340987 -0.02002797
0002c0 fb 57 d1 bd c6 3b ce bd f6 a8 98 bc 88 93 9d 3c
       -0.10221859 -0.10069995 -0.018635254 0.019235387
0002d0 8b b1 37 3d 15 e2 cb 3d e1 78 00 3a 73 e0 fe bd
       0.044847053 0.09955231 0.0004900825 -0.12445154
0002e0 c9 94 be bd 57 af 47 bd 04 20 1c 3d b1 7d fa 3d
       -0.09305722 -0.0487512 0.03811647 0.12231005
0002f0 13 cb ea 3d 20 19 1b bc 5b 4d 9b bd 85 9b 53 bc
       0.114645146 -0.0094664395 -0.07583114 -0.012915497
000300 34 61 20 3e 70 2d fa bc 5b 6c 0a bd a1 03 26 3e
       0.1566208 -0.030539244 -0.033794742 0.16212322
000310 87 ba 33 bd 15 b2 1d 3e 99 f7 20 3e 61 84 cc bd
       -0.04387906 0.15399964 0.15719451 -0.09986187
000320 27 39 38 3d 36 6a 3b bd a6 85 c9 3d bc 05 d7 bc
       0.04497638 -0.045755588 0.098399445 -0.026247852
000330 1e 4f 31 3e fb 2a 09 3e 1c 88 16 3e 51 e8 e3 bb
       0.17315337 0.13395302 0.14700359 -0.0069551845
000340 85 75 c2 bd e4 13 c8 3c 39 d7 97 3d 5a ab b4 3d
       -0.09495071 0.024423547 0.07414097 0.08821745
000350 5a 67 12 3e 8c 75 b8 bd ab 04 ed 3d 7c 18 d8 3b
       0.14297238 -0.09006795 0.11573156 0.0065947156
000360 ca c7 d4 3d ed 8d 5e 3d 0a 92 83 bd 41 1c 90 bd
       0.10389669 0.05433457 -0.06424339 -0.07036639
000370 7a 57 8a 3d 57 85 57 3d 08 6d a9 bc c9 71 7f 3d
       0.06754966 0.052617397 -0.020681873 0.062364373
000380 8a ad ac 3d 36 1f f1 3c 6c 45 07 3b 76 c8 02 3e
       0.084315374 0.029433828 0.0020640744 0.12771782
000390 8d cd c5 bc c7 f8 fd 3d ea 76 76 3e 7c cd c7 3d
       -0.024145866 0.12400966 0.240688 0.0975599
0003a0 b4 d6 2e 3d f7 0c bd 3d c8 1b 6a be bb 1d 64 be
       0.042685226 0.092309885 -0.2286216 -0.22276966
0003b0 d8 5c 2e be bd f2 0e be f2 75 c2 ba 83 c2 08 3d
       -0.17027605 -0.13959785 -0.0014836176 0.033388626
0003c0 a9 c9 d5 3d 80 19 c7 3d 6f 48 95 3d cf bf 5e bd
       0.10438854 0.097216606 0.07289206 -0.05438214
0003d0 4d 99 91 bd 19 4f 18 3d e3 f0 e7 bb 91 7c 9c bd
       -0.07109318 0.03718481 -0.0070782765 -0.07640947
0003e0 5b 1d cf 3c 66 d4 7e 3c 5a e9 ee 3b d7 6b 40 3e
       0.025282552 0.015553569 0.0072910013 0.18791138
0003f0 4b 66 51 bd 0e a1 a7 3d 07 6a 74 3d 6a 47 01 3e
       -0.051122945 0.081850156 0.059671428 0.12624899

features.6.bias f4 [12]
000000 9c a3 2a 3e 7e bf b3 3d 92 27 93 3d 75 19 a2 bd
       0.16663975 0.087767586 0.07185282 -0.07915012
000010 46 a0 84 bb c6 71 c4 bd b5 24 24 3e 55 cd 04 bd
       -0.0040474264 -0.09592013 0.16029628 -0.032422382
000020 75 17 6b 3d 97 61 f9 3d 90 6f e0 bc 1a eb 30 bd
       0.057395417 0.12176817 -0.027396947 -0.04319296

classifier.0.weight f4 [16, 12288]
000000 c0 51 38 bc 4f f8 55 3b e2 fe 8a bc 42 25 63 bc
       -0.0112499595 0.0032649224 -0.01696724 -0.013863863
000010 5b f5 da bc fe 4f a9 bc 4a 16 e1 bc 8f f8 91 bc
       -0.026728323 -0.020668026 -0.027476449 -0.017818717
000020 fe 89 a8 bc ee a5 0c bc 93 3d 90 bb 4f cb 0d 39
       -0.020573612 -0.008584483 -0.0044018715 0.00013522546
000030 94 80 36 3c 12 af 09 bc 99 c5 2b bc 9f 95 8e bc
       0.011139054 -0.008403556 -0.010484123 -0.01740533
000040 8a e8 1e bc de 5e c2 bb 8b e6 53 bb 4d 52 0b 3c
       -0.009698996 -0.005931719 -0.003233346 0.008503509
000050 2a bc 88 b9 d1 81 40 bc 70 c1 73 bb 84 d5 a6 bc
       -0.00026080135 -0.011749701 -0.0037194155 -0.020365484
000060 1a 8e 20 bc 4e 21 4d bc 74 7c a0 bc bc 5d 1e bc
       -0.009799505 -0.0125201475 -0.019590594 -0.009665903
000070 65 68 55 ba a5 04 77 3c 2a d9 ca 3c dc e7 42 3c
       -0.0008140861 0.015076791 0.024761755 0.0118961
000080 58 0a b7 3d a4 f1 a0 3d d1 46 3d 3d 38 10 2e bc
       0.0893752 0.07858589 0.046210114 -0.010623984
000090 e5 d0 31 bd 5a d7 21 bd 1f b0 07 bd cd 27 28 bd
       -0.043412108 -0.039512016 -0.033126947 -0.041053582
0000a0 9b d3 3a bc 0d 67 7e 3b 6a b4 a2 bc 2d c1 94 bc
       -0.01140299 0.0038818747 -0.019861419 -0.01815852
0000b0 f2 58 db bc 37 e7 51 bc eb b0 a8 bc 52 78 28 bc
       -0.02677581 -0.012811474 -0.020592174 -0.010282593
0000c0 a0 72 93 bc cf b0 74 bc 50 9f f5 bc f5 94 16 bd
       -0.017998993 -0.014934733 -0.029983193 -0.03676315
0000d0 2b 98 27 bd a0 7b 33 bd 92 97 c0 bc 7c ae 86 bc
       -0.040916603 -0.04381907 -0.023509774 -0.016440623
0000e0 46 c3 06 bd 58 cc 3f bd ec 93 3b bd 2e 3c 19 bc
       -0.03290107 -0.046825737 -0.045795366 -0.009352727
0000f0 fd ca 23 3d 8b 1f 8a 3d b7 91 a8 3d 20 73 6c 3d
       0.039988507 0.067442976 0.08230918 0.05772698
000100 02 df 85 3d 31 b0 53 3d 4d 07 f1 3c ca 4c da bc
       0.06536676 0.0516817 0.029422427 -0.026647944
000110 62 4d 22 bd 94 88 2a bd b1 05 35 bd 1a 6b 09 bd
       -0.03962458 -0.041634157 -0.04419488 -0.033549406
000120 ea 73 10 bd e7 3e c5 bc 5c 85 81 bc 24 41 33 3b
       -0.035266794 -0.024077846 -0.015810661 0.002735206
000130 23 b7 05 3d c8 93 98 3c 3e 92 69 3c 7d 8b 04 ba
       0.032645356 0.018625155 0.014256058 -0.0005056186
000140 8f 21 03 3a 02 64 37 bc 16 33 15 bc 2c 7c 90 bc
       0.0005002254 -0.011193277 -0.009106418 -0.017637335
000150 30 ff 96 bc 49 7f f6 bb f8 37 32 bc ea 20 f5 bc
       -0.01843223 -0.007522498 -0.010877602 -0.029922921
000160 c1 0c 0a bd 01 32 f2 bc 06 78 72 bd 84 93 6b bd
       -0.03370357 -0.02956486 -0.059196495 -0.05751373
000170 66 50 9f 3b 54 2a 3e 3d 63 66 36 3d af 51 30 3d
       0.004861879 0.046427086 0.044531237 0.04304665
000180 fa dd 1e 3d 74 69 ff 3c 4f 5b 30 bb 84 03 27 bd
       0.038785912 0.031178214 -0.0026909893 -0.040774837
000190 62 2c 61 bd ba bc 50 bd 82 ed 4d bd c2 31 0a bd
       -0.054973967 -0.050961234 -0.050275333 -0.03373886
0001a0 ea 1f 9e bc 05 1e 8e bb 6c 55 c1 3c 19 76 cc 3c
       -0.019302327 -0.0043370747 0.023600303 0.024958657
0001b0 01 c6 9d 3c de 87 92 3c 97 72 11 3c 01 73 a7 3c
       0.019259455 0.017887052 0.008877418 0.02044058
0001c0 ae c7 a2 3c 72 ed e4 3c 6a ec d4 3c 20 e7 d7 3c
       0.019870605 0.027945254 0.025991637 0.026355326
0001d0 11 5c 8c 3c 92 f9 b5 3c 68 84 44 3c 73 36 ed 3b
       0.017133744 0.022213731 0.011994459 0.007239157
0001e0 bf cd 58 bc de ef 11 bd 66 89 8c bd 2d 42 90 bd
       -0.013232647 -0.035629146 -0.06862144 -0.07043872
0001f0 6b 01 84 bb 5f e7 8e 3c 7e 5d a6 3a f5 2b 28 3b
       -0.0040284893 0.01744431 0.0012692658 0.0025660966
000200 5a 47 13 bc 9c 40 a8 bc 64 2d 44 bd 13 59 8a bd
       -0.0089891795 -0.02053862 -0.04789485 -0.06755271
000210 44 18 7d bd be cb 6c bd 70 ff 17 bd bc df f5 bb
       -0.06179072 -0.05781149 -0.03710884 -0.007503478
000220 a9 56 81 3c b9 39 5d 3c 06 cf 21 39 b8 04 23 3c
       0.015788393 0.013502532 0.00015431279 0.0099498555
000230 17 31 08 bc 32 81 f2 3b 88 0a 41 bc 70 bf f8 3b
       -0.008312485 0.007400655 -0.011782296 0.0075911805
000240 19 25 4f 3c 33 7b d7 3c 3e 52 35 3d 86 37 ed 3c
       0.012643122 0.026303863 0.044267885 0.02895714
000250 37 7b 30 ba 51 1c 60 bc f5 f0 45 3c bf 80 13 3c
       -0.00067322276 -0.013678626 0.012081374 0.009002863
000260 0f f9 96 3a 1e e5 d6 bc 0e 35 84 bd 1a 29 93 bd
       0.0011518317 -0.026232298 -0.06455432 -0.07185574
000270 1b f0 5f bd ed a0 1d bd 04 ca 48 bc 10 e9 60 38
       -0.05467234 -0.03848355 -0.0122551955 5.3622818e-05
000280 f3 11 5b bd 3f 62 42 bd 01 3c 6e bd 2e 05 7c bd
       -0.053483915 -0.047456976 -0.058162693 -0.061528377
000290 fa b4 14 bd 54 eb 8d bc 1a 2e a6 3c 38 04 f9 3c
       -0.036305405 -0.017324127 0.020285655 0.03039752
0002a0 bc 25 c4 3c 23 f6 99 3b 12 6a a6 bc d5 31 f3 bc
       0.023943774 0.0046985312 -0.02031425 -0.029686848
0002b0 6f be ce bc 90 0b 9d bc 84 2a 54 3c b7 87 88 3c
       -0.02523729 -0.019170552 0.01294959 0.016666276
0002c0 8d f2 ae 3c b5 14 62 3c 77 c0 a0 3c b1 10 9d 3c
       0.021355892 0.013798882 0.019623024 0.019172998
0002d0 a7 39 7b 3c 52 ca b3 bb d0 2c 08 bc e9 f8 b6 3c
       0.01533357 -0.005486765 -0.008311465 0.022335486
0002e0 d0 3f fb 3c a5 4d ee 3c 23 e7 af bc 7b f9 23 bd
       0.030670077 0.029089758 -0.02147252 -0.040032845
0002f0 c0 b4 71 bd 8a 3e b5 bc 47 1d 13 bd ae d4 60 bc
       -0.059010267 -0.022124548 -0.035916593 -0.013722582
000300 ca 6a 3b bd 1f 75 1a bd 02 4d 46 bd 7d 2c fe bc
       -0.04575614 -0.03770935 -0.048413284 -0.031027073
000310 84 c6 b4 bc 16 f5 b4 3a db 5e bf 3c 53 78 49 3c
       -0.022067316 0.0013805951 0.02336066 0.012296754
000320 6f 33 aa 3b bd 12 98 bc 14 de ac bc 46 25 73 bc
       0.0051941196 -0.018563623 -0.021101989 -0.01484043
000330 26 0d 1f 3b a8 e3 b5 3c 8c e9 c0 3c c6 a5 bd 3b
       0.0024269312 0.022203282 0.023548864 0.005787584
000340 bc 06 00 3a 4d f2 2f 3b b5 f9 3c 3c 79 8c 29 3b
       0.0004883816 0.0026847303 0.011534144 0.0025871082
000350 e9 0a be bb 69 9d 8f bc ec bc 96 3b 3f b0 f1 3c
       -0.0057996404 -0.017531114 0.004600158 0.029502986
000360 a6 c4 1e 3d 90 7e 21 3d 08 4d 31 3c 08 e7 05 bd
       0.038761757 0.03942734 0.010821588 -0.03269103
000370 bf a6 6d bd b5 75 93 bc 6f a8 f5 bc 67 1f 3e bc
       -0.05802035 -0.018000463 -0.029987542 -0.011604167
000380 77 f2 cb bc 50 39 4a bd 73 2c 83 bd 94 8a 86 bc
       -0.02489589 -0.049371064 -0.064049624 -0.016423501
000390 f8 df 94 bc cf 2a 94 3a 49 7b 46 3c 38 cf cd 3b
       -0.018173203 0.0011304262 0.012114354 0.006280806
0003a0 8d 6c 95 bc 2f 2b 03 bd 8c 70 08 bc ef fc 09 3c
       -0.018240238 -0.032023605 -0.0083276145 0.0084221205
0003b0 12 c5 4c 3d d1 48 b8 3c 4f ad b8 3c 01 07 e5 3c
       0.04999263 0.022495659 0.022543577 0.027957441
0003c0 a5 98 03 3c 83 15 44 3c 9b 1f 6c 3c 79 fa 88 3c
       0.008031999 0.011968019 0.014411832 0.016720997
0003d0 71 8f 95 bc 71 0b 3d bc 39 aa 18 bd 68 2f 87 3c
       -0.018256875 -0.011538372 -0.037271712 0.016502097
0003e0 57 42 28 3d 7f 34 fa 3c 19 7b e3 3c b4 17 a3 3a
       0.04107889 0.03054261 0.027768658 0.0012442977
0003f0 97 83 1d bd a4 01 f7 bc 3f 85 9a bc a0 c8 47 3b
       -0.038455572 -0.03015215 -0.018862365 0.0030484572

classifier.0.bias f4 [16]
000000 54 4d 9e bc 1d 99 5d 3d 49 b2 0b bd 6c 1a 8d bc
       -0.019323982 0.0541011 -0.034105573 -0.017224513
000010 f7 60 59 3d 43 39 08 bc f1 ea 00 3d 95 df 45 3c
       0.05307099 -0.0083144335 0.031474058 0.012077232
000020 a7 60 96 b9 ab 6f 14 bc 44 08 33 bc f0 94 51 3d
       -0.0002868224 -0.009059827 -0.010927264 0.05116743
000030 4c b1 9f 3a e2 ae 57 bc 00 3e 60 bc ea b2 8f ba
       0.0012183576 -0.013164254 -0.013686657 -0.0010963355

classifier.2.weight f4 [3, 16]
000000 35 12 32 3e aa 0e b3 3d 68 3a da bc 44 de 78 3e
       0.17389758 0.08743031 -0.026639178 0.24303538
000010 80 97 c0 3d 05 e8 02 3e 08 9f 80 bd 32 27 71 3e
       0.09403896 0.12783821 -0.06280333 0.23550108
000020 fc 98 af bd 50 a9 2c 3d 49 9b 93 3e 44 99 3b 3e
       -0.08574101 0.042153656 0.2882941 0.18320185
000030 8c 25 d7 3d 5c 06 7f 3c 57 6e 0a be f3 7e 1d 3e
       0.105052084 0.015565481 -0.13518654 0.15380459
000040 14 09 3a bd cf 12 94 3e 77 a1 fd bc 61 8a 43 be
       -0.045418814 0.289206 -0.030960781 -0.19095756
000050 6a 2f 18 3d ba 80 af 3d 04 73 87 3e 39 1e 73 3c
       0.037154593 0.085694745 0.26454937 0.014838749
000060 d6 eb ed bd 0b d8 6b be 96 42 05 be ea e0 fe 3d
       -0.11617248 -0.23031633 -0.13013682 0.12445243
000070 a9 38 2a be e9 34 2f be 8e 9c 71 be bf 75 d8 3c
       -0.16623177 -0.17110027 -0.23594877 0.026423333
000080 74 1d a6 3d 8a 71 36 bd 6a 96 91 3e 3b 00 3c 3d
       0.081110865 -0.044541873 0.2843507 0.045898657
000090 c2 4b ba be 8e 60 db 3d 5f 68 e5 3d d0 f6 57 bd
       -0.36385924 0.10711776 0.11201548 -0.052725613
0000a0 3a fc 01 3d 8b 72 97 be 01 da 95 3d a0 52 59 be
       0.031734683 -0.29579577 0.073169716 -0.21222925
0000b0 7b d2 65 3c cb c8 35 be 87 83 80 bb 4f 42 41 3e
       0.014027233 -0.17752378 -0.0039219293 0.18872951

classifier.2.bias f4 [3]
000000 14 64 32 be 77 26 b9 3d 54 74 ae bd
       -0.1742099 0.0904054 -0.085182816
